ai/models/lstm_classifier.pt (torch, 954361 bytes, 28 tensors)

lstm.weight_ih_l0 f4 [256, 24]
00000000: 6fc6 5fbe d203 88be d684 35be 0aca 023e
00000010: fb68 d3be c48f 1fbe 63f9 8c3e b689 733e
00000020: 62a6 903e 50bb 9c3e 8d23 87be 4bb6 73bf
00000030: bd7c 00be 7727 f1bd d71d 33be ab37 92be
00000040: a76b 9cbe cd60 63be d72c 9bbe b96a 5bbe
00000050: 309b 34be f33a ccbd e1c7 99be 3601 83be
00000060: 3c51 51bf 06e1 80bf 36f3 55bf 2ad2 53bf
00000070: 9994 57bd e6f7 4a3e 966e 5cbd 6416 c8bd
00000080: 8166 5dbf 60cd 56bf c080 65be 61ea 1d3f
00000090: 0787 3cbe ba0a 59be 8668 d9bd baaa 1fbe
000000a0: 5328 cabc 2287 49be 81da 05be 421b 59be
000000b0: 98e3 16be edcb 0abe e1cc 31be 9fe2 4fbe
000000c0: 7073 953e cbed 5e3e 0f61 9e3e 337e 2a3e
000000d0: b09f ee3d c181 043f d4d2 d03d 62e0 393e
000000e0: 5346 e73d f334 003f 762c 02bf 9e2e 13be
000000f0: 79a6 93be d12d 25be d56d 19be a29b a2be
00000100: 0d4f a4be 98e0 07be 7b5a 81be 84e3 72be
00000110: 61ab 24be c751 1bbe c2e3 36be 0e21 35be
00000120: 65d8 1abe ae6c b6be 4e1d 12be 0f57 b7bd
00000130: 21a0 1a3e 86fc 28bf e52a 68be 4522 60bd
00000140: cdf1 d8bb 3fd7 713e e615 b7be df8a eebe
00000150: 0054 75be 61d5 88be aa39 2ebe b21c 5abe
00000160: a65a 75be 4e9f 83be 550c 9dbe bd9d a7be
00000170: 3335 2cbe 8e36 b5be cc11 72be 25a8 6abe
00000180: 069a 5a3e 5112 553e 1a85 bc3e 3f32 dc3e
00000190: 133f c53d ab81 063e 6ad9 2fbe 9763 2dbe
000001a0: dd83 c73d 9f55 133f cd18 d8bd 983e 413d
000001b0: ce83 c43d a598 803c dc67 013d 65a8 2e3d
000001c0: 4af1 afbb e085 e43c a60f e83d 618f 533c
000001d0: 0b3d 2f3d 5081 11bd 284f 1cbd ae23 6e3d
000001e0: a4f0 bdbd daac 33bd 29bb 6cbc b112 8abe
000001f0: dc0d dc3d 75e2 34bf f114 5dbd 32fe fa3e
00000200: 9e8b a4bd 27e5 aebe fcbf 09bf c5de 6d3f
00000210: b95b 81be ddcb 4abe 9c5d 89be 42d6 28be
00000220: 4882 0abe b490 93be a705 7bbe 7a03 dabd
00000230: 61e4 4ebe 772e 0fbe f922 e7bd 5a96 8ebe
00000240: 3e62 86bd f634 833e d7d4 0cbf 7f76 66be
00000250: d8ca 843f 1b0a 20be 4b05 cabe 9292 06be
00000260: 44d7 bf3e a8ee febe 0840 8f3d 5701 073e
00000270: e78c b0bd 4fa3 a93c 60b1 a5bd 07ba 81bb
00000280: edbe e9bd 8f15 453d a9e7 45bc 85bd f03b
00000290: aa33 48bc 94ac 07be 95d8 6dbd 2044 d93c
000002a0: c259 2dbd 944d 34bd 24b5 66be 561b 0fbc
000002b0: 33a6 513e 4e0f 8bbf c709 78be e03e 0bbd
000002c0: fa13 883d 37a9 b2bd 8af5 52bf 1da2 14bf
000002d0: 9188 28be f9e7 75be 59ac 17be ead2 7dbe
000002e0: 3441 35be 7819 aebd c1f8 1fbe 6c6b 03be
000002f0: 65a0 6cbe b836 1cbe c353 4bbe accd 62be
00000300: 9cec b93e cd25 7b3e cf89 073e b50b cb3e
00000310: eced 9fbd 7417 51be bf5c e13e e98e 1b3e
00000320: 0bd2 dc3d 4b18 0d3f 7813 563e c681 0fbd
00000330: dd0c 9cbe a7fe a9be c2de a7be df5d 96be
00000340: 3e73 b6be 0c32 ddbe ee27 e9be 05b9 cdbe
00000350: 0268 a9be 44be b3be eb64 e6be bb24 e4be
00000360: a792 243c feda 9b3d 9e2e d43d 6703 603d
00000370: 95ba 96be 3886 b73d 27d9 4e3d 5b5d 333d
00000380: 75a0 4cbd 5395 423e 076c 273e 0fb6 023f
00000390: e091 cdbd e83f a4be 3bda f3bd 47b4 78be
000003a0: e06f a0be 5508 a4be 4187 09be 648a 2dbe
000003b0: ba1b 30be 84ba 66be 6144 52be 15d4 17be
000003c0: 97eb 563e 6e0f e13e 7404 1bbd 2b0c 5a3d
000003d0: 297e 693f 65a4 9f3e b537 cfbd 7244 b6be
000003e0: 8b1b 7b3e 21ba 5cbe 0e11 153f 8ac5 1d3f
000003f0: c5b2 32bd 23a9 8f3c 34ef 893c d610 0b3c
-0.2185304 -0.26565415 -0.17726454 0.12772384 -0.4129103 -0.15582186 0.27534017 0.23783001
0.2825194 0.30611658 -0.2639431 -0.9520003 -0.12547584 -0.117751054 -0.17491852 -0.28558096
-0.30550882 -0.22204895 -0.30307648 -0.2142743 -0.17637324 -0.09972181 -0.30035308 -0.2558686
-0.8176458 -1.0068672 -0.83574235 -0.8274256 -0.05263195 0.19821128 -0.0538164 -0.09769896
-0.86484534 -0.8390713 -0.22412395 0.6168576 -0.18410884 -0.21195498 -0.106156394 -0.15592471
-0.024677431 -0.19680455 -0.13071634 -0.21201804 -0.14735258 -0.13554354 -0.17363311 -0.20301293
0.29189634 0.21770398 0.30933425 0.16649704 0.11651552 0.5176049 0.10196462 0.18152002
0.1129271 0.50080794 -0.5084909 -0.14373252 -0.28837946 -0.16130759 -0.14983304 -0.31759363
-0.3209156 -0.1326927 -0.25264344 -0.23719603 -0.16081001 -0.15167914 -0.1786032 -0.1768839
-0.1512161 -0.3562979 -0.14268991 -0.08952152 0.15100147 -0.6601032 -0.22672613 -0.054720182
-0.006620622 0.23617266 -0.35758895 -0.46590325 -0.23957825 -0.26725295 -0.17014185 -0.21300009
-0.23960361 -0.25707477 -0.3067347 -0.32737532 -0.16817169 -0.35393184 -0.23639601 -0.22915705
0.21347818 0.20807768 0.36820298 0.43007085 0.09631171 0.13135402 -0.1717278 -0.16932522
0.09741948 0.5755252 -0.105516054 0.047178835 0.09595452 0.015697787 0.03159319 0.042641062
-0.00536934 0.027895868 0.1133111 0.012912602 0.042782824 -0.035523713 -0.038161427 0.058139496
-0.09274414 -0.043866016 -0.014448919 -0.26967385 0.10744831 -0.70658046 -0.05397505 0.4902206
-0.08034442 -0.34159204 -0.5380857 0.92918044 -0.2526529 -0.1980433 -0.2682923 -0.16487983
-0.13526261 -0.28821337 -0.24513875 -0.10645194 -0.20204307 -0.13982569 -0.112859674 -0.27849084
-0.06561707 0.25626343 -0.5501227 -0.2250614 1.0374403 -0.15628855 -0.39457163 -0.1314185
0.37468922 -0.49791455 0.06994635 0.13184105 -0.08620625 0.020707754 -0.08090472 -0.0039589438
-0.11413369 0.048116263 -0.012079158 0.0073468112 -0.012219349 -0.13249427 -0.058067877 0.026521742
-0.042321928 -0.044019297 -0.22530037 -0.008734545 0.20473556 -1.0864046 -0.2422248 -0.03399551
0.06644435 -0.087236814 -0.8240591 -0.58059865 -0.16458346 -0.24014272 -0.14811839 -0.24787489
-0.17700654 -0.085009515 -0.15622236 -0.12833947 -0.2310806 -0.15255249 -0.19856171 -0.2214877
0.3631333 0.24526139 0.13236164 0.3965737 -0.07809052 -0.20419103 0.44016072 0.15191235
0.1078225 0.55115193 0.20905864 -0.03503587 -0.30478564 -0.33202097 -0.32787138 -0.29368493
-0.35634798 -0.43202245 -0.45538276 -0.4018022 -0.33087164 -0.351061 -0.4499887 -0.44559273
0.01004473 0.07610129 0.10360454 0.054690745 -0.29439226 0.08961147 0.05050006 0.043790203
-0.04995771 0.19002275 0.16349803 0.5105905 -0.10037589 -0.32080007 -0.119068585 -0.2428752
-0.31335354 -0.32037607 -0.13430502 -0.16947323 -0.17198077 -0.22532088 -0.20533897 -0.14826997
0.20988308 0.43957084 -0.037846044 0.05323426 0.9120813 0.3118011 -0.10118047 -0.35599095
0.24522226 -0.21555378 0.5822915 0.61629546 -0.04362752 0.017536705 0.016837694 0.008487901

lstm.weight_hh_l0 f4 [256, 64]
00000000: 143c 14be cc59 0bbf 4819 c9be 38e0 a7bd
00000010: 89b9 28be b51f 823e b783 35be 8516 823f
00000020: b8a6 0c3f 0eb8 243f f103 103f 7dd4 703e
00000030: 8319 5bbe 56e9 4d3f d132 66bf e8e8 a7be
00000040: fa8a 61bf 4938 653e 52db 8abe fb32 383f
00000050: a22a 923f cecd 61be 7cd0 71bf 1836 0b3f
00000060: 6cda e6bf 59a7 afbf b6a7 73bf 474a 353f
00000070: bf62 4f3f 921c 633e 8126 29bd 63fd 873f
00000080: b476 403e b39c ce3f 42d5 0bbe 8165 9d3f
00000090: 4ac5 35bf 8ff6 583f c496 c43e 2e49 4abe
000000a0: b0a5 043f 6bf3 69bf ef42 2b3e df93 9ebf
000000b0: 7483 c4be 4732 ad3e 5cc4 a6be f333 8abe
000000c0: ae4c 2ebe ed11 f83e a96e f93f cd6b fdbe
000000d0: 3153 9ebe 139a 77bf 2aae 92bf 6219 a6be
000000e0: 9b87 bebf 5870 13bf 4286 ccbf d078 d0be
000000f0: 9225 15bf c6ac 233f 661b f4bd 2f9f 853e
00000100: 2019 90bf b545 32bf be3d 6a3e 2388 af3e
00000110: d47c 33bd ce68 f93e 4508 31bf a216 393e
00000120: 0827 63bf 9ff0 dfbd 19e2 5bbd 181f 2a3f
00000130: a999 5fbf 15c1 57bf ad9a 073e 2656 b93e
00000140: ff71 ac3e 4999 1abd a262 91be 6d1e 1e3e
00000150: 2159 68bf 6799 abbf 8067 afbe e9f1 4abf
00000160: 13cb 0c3e b0c8 a5be 734d 65bd 06c0 e33d
00000170: 176e 633a ed4c f4be fedc a5bc acbd 50be
00000180: bbfd 50bd e59b a73d 1555 73bf acc7 2b3e
00000190: dc55 7ebe 8920 343e 25eb c2bf fcf6 143f
000001a0: 7dae 20bf 92b5 e03d 753d a8bd f149 f63d
000001b0: 20ba 21be e38f 88bd 49b0 6fbe 0bda 04bf
000001c0: 609d 513e 02aa 503f 47d5 b13f 17b7 053d
000001d0: 81b2 06be 7fb2 77be 7f23 48be 5a95 0c3e
000001e0: 1ae2 ef3d de4a c03c aaa9 81bf 3920 133e
000001f0: 92a8 16be b9f0 8b3f 26b8 4c3d 78d6 acbf
00000200: bf82 53bf 7ce9 44be 4b4e 5a3d 821a 22bf
00000210: 0880 663e ab2d df3e 602d 0bbf b05b 643f
00000220: 8215 10bf a7e5 78bf 6bde e9bd 64d1 0dbf
00000230: d846 f4be 338a cb3e 2d92 dd3d 80d1 743e
00000240: a325 693e 857f f43e a0a1 98be 9f0e 0a3f
00000250: 24e0 b23e f59c 0c3f 09c2 75be e2e4 af3e
00000260: 85ce 553e 9563 4c3e 18b8 dc3c 81ab 5c3e
00000270: 3ba8 623e 5c19 123f 0089 acbe 7b96 b13f
00000280: c407 4fbf dd46 6c3f 7f1e 7c3e 786f 8b3e
00000290: e238 08be 408e 3a3f f527 d03b 9d54 60bf
000002a0: a8aa 063f ee54 1abf 8152 cf3e 6055 d8be
000002b0: 486c 41bd 1bf5 bb3e c550 3cbf 8473 6d3e
000002c0: 8261 9abe afcc 263f 4385 833e 394a aa3e
000002d0: 562a 3dbf b20f 2ebe e652 84bf ac31 2cbe
000002e0: 4bde 8ebe 6b0d 6fbd 565f 91bf 3448 383d
000002f0: 775d 8dbd 3e40 e33e 8bae 1d3d 04e6 73bb
00000300: 3c3e 8dbf c6e6 17be 0309 343f c041 9abe
00000310: 15a6 a9ba 4150 75bf a25c 41bf e06e 98bb
00000320: 8833 aebe ab77 1f3f 827f e23e 3381 8e3e
00000330: cece 78bf fd9d 933e cac7 7f3e 3695 f93e
00000340: a9b0 773e 75e9 043f 9ea6 a4be 099c 54bf
00000350: ed15 703e b26e a9bd b43e 933e b953 4ebf
00000360: 278b e6be 6ed6 ab3e 8777 53bf f9c1 e83e
00000370: 8f9c 183f 61fc 68be b832 3fbe feaa 373d
00000380: 16e5 7fbd c786 fd3e 3d28 d1bd bd25 6e3e
00000390: de90 48bf 01c5 87bf deb2 613f bc08 3abf
000003a0: af3e cebe 6fac d0be 9c4c d33e b9df fe3c
000003b0: d3f6 3d3f bee3 623f 1c44 1c3e bc45 b1bd
000003c0: 51dd 4ebe 80f5 2c3f b4cf c53e b0dd e1bd
000003d0: 19ea 283e a634 61bf 345e 1ebf 0e5d 01bf
000003e0: 4713 ef3e 29af e6be a530 bcbe 2b2d 5abd
000003f0: 1d2b 89be 821f 86be c9e6 31be 0e20 513f
-0.14476043 -0.54433894 -0.392771 -0.08197063 -0.16477026 0.25414816 -0.17726026 1.0163122
0.5494189 0.64343345 0.56256014 0.23518558 -0.2139645 0.8043417 -0.8992129 -0.3279488
-0.88102686 0.22384752 -0.27120453 0.7195279 1.141926 -0.22051165 -0.94458747 0.54379416
-1.8035407 -1.3722945 -0.9517778 0.70816463 0.8101005 0.22178867 -0.041296486 1.0624202
0.18795282 1.6141571 -0.1365557 1.2296602 -0.71004164 0.8475122 0.38396275 -0.19754478
0.5181532 -0.9138705 0.16724752 -1.2388877 -0.3838154 0.3382742 -0.32571685 -0.2699276
-0.17021438 0.48451176 1.9486896 -0.49496308 -0.30922845 -0.96719474 -1.1459401 -0.3244124
-1.4885134 -0.575933 -1.5978472 -0.40717173 -0.5826045 0.63935506 -0.11919288 0.2609801
-1.1257668 -0.69637614 0.22875115 0.34283552 -0.043820217 0.48712772 -0.69153243 0.1807504
-0.8873143 -0.10934567 -0.05368242 0.66453695 -0.8734384 -0.84278995 0.13242598 0.3619854
0.33680722 -0.03774384 -0.28395563 0.15441294 -0.90761 -1.340619 -0.34258652 -0.79275376
0.13749342 -0.32379675 -0.055982064 0.1112061 0.00086757675 -0.4771494 -0.020246979 -0.20384854
-0.051023226 0.081840314 -0.950517 0.16775388 -0.2483744 0.17590536 -1.522801 0.5818937
-0.6276625 0.10972132 -0.08214847 0.12025822 -0.15793657 -0.06668069 -0.23407091 -0.5189521
0.2047019 0.8150941 1.3893212 0.03264531 -0.13154031 -0.24189185 -0.1954479 0.13728848
0.11713047 0.0234732 -1.0129902 0.1436776 -0.14712742 1.0932838 0.049980305 -1.3502951
-0.8262138 -0.19229692 0.053297322 -0.633217 0.22509778 0.4358953 -0.5436611 0.89202404
-0.5628282 -0.9722542 -0.11419376 -0.5539763 -0.477103 0.39753875 0.108188964 0.23908043
0.22768264 0.4775354 -0.2981081 0.5392856 0.3493663 0.54927 -0.239998 0.3435431
0.20879562 0.19959863 0.026943251 0.21549799 0.22134487 0.57069945 -0.33698273 1.3874048
-0.80871224 0.9229563 0.24621008 0.2723348 -0.13302949 0.72873306 0.0063524195 -0.8762911
0.5260415 -0.6028584 0.40492633 -0.42252636 -0.047222406 0.36710438 -0.73560745 0.23188597
-0.30152518 0.6515607 0.25687608 0.33259752 -0.73892725 -0.16998175 -1.0337799 -0.16815823
-0.2790397 -0.058362406 -1.1357219 0.044990733 -0.06902593 0.4438495 0.038496535 -0.0037215957
-1.1034617 -0.14834127 0.7032625 -0.30128288 -0.0012943173 -0.9582558 -0.7553197 -0.004651889
-0.3402369 0.62291974 0.44237906 0.27832946 -0.9719056 0.28831473 0.24978557 0.4874665
0.24188484 0.5191873 -0.3215837 -0.8305059 0.23445864 -0.082730666 0.28758776 -0.805965
-0.4502804 0.33562034 -0.8260426 0.4546049 0.5961389 -0.22752525 -0.18671691 0.044840805
-0.062474333 0.4951689 -0.10212753 0.23256584 -0.7834605 -1.0606996 0.88163555 -0.7266958
-0.402822 -0.40756556 0.41269386 0.031112539 0.7420475 0.88628757 0.15260357 -0.08655879
-0.20201613 0.67562103 0.38635027 -0.11028612 0.16495551 -0.8797096 -0.6186249 -0.50532615
0.46694395 -0.45055512 -0.36755863 -0.05326573 -0.26790705 -0.26195914 -0.17373194 0.81689537

lstm.bias_ih_l0 f4 [256]
00000000: 5190 76be 483c 5cbe 3a4d 56be 0940 88be
00000010: 7627 513d d593 98be 9c79 4c3d 9c11 49be
00000020: da28 dfbe 9e26 4abe e564 06bd eac3 13bd
00000030: fa60 16bf b223 86bd ccde 953d c521 10bd
00000040: 0cef 123d f579 50be b7b8 43be 0b34 eabe
00000050: 7377 b1bd b708 8dbe fb7b 11be 7c38 6ebe
00000060: 1e5b bdbd b0f0 a8bd 4d83 79be ca4a 01bf
00000070: c70e 87bd b3f3 97be 276b d73c c04a 92be
00000080: 11ea 7dbe 4ee8 603c 5a37 a5be d5fd c3be
00000090: d5f8 803e 2bec 8cbe fc7c d3be 89d9 8ebe
000000a0: 9c66 f2bd 95d9 64be c8a1 0cbe f335 5dbe
000000b0: 67da 71be 6255 28bd 8693 47be 243c 6f3d
000000c0: e8cf 68be 239c 06bd c664 2cbe a4df c6bd
000000d0: a87f 9dbc 4959 a5be cc34 96be 20dd 6abe
000000e0: 8f71 95bd 0ca8 8c3d d114 773e d085 35bf
000000f0: 61f1 c2be 218c 8abe cb61 a63d 3ccd 1bbd
00000100: fa08 093e 993e 58bd 8905 863c 7bd7 163e
00000110: 12ce 22bf e684 2dbe d7d4 0bbf 3c85 f8be
00000120: 51ed ef3d 6572 5f3e 62bd c3be c896 febe
00000130: 9935 18be 4a00 c9bd 1673 29be eaf5 81be
00000140: 1232 b3be 9217 88be 1fa2 fcbe bcad d43d
00000150: d082 99bd bd95 75bd fe10 9bbe b5aa 80be
00000160: 6cb6 793d eec9 aebe 1d56 74be 87f4 a0bd
00000170: a2f3 9ebd 6d15 f93e 2699 2fbf a1ce 59bd
00000180: 8cca 4e3e 0882 c83d 8d45 e7be eb0b fabe
00000190: 387c 8bbe ff9f d0bd a945 f0bd f7a7 3dbe
000001a0: 69c3 b8bd 5a11 9ebe a93c 53be 91b3 89be
000001b0: 930e 80be 38ad 07be 9e70 c8bd 6af5 ffbe
000001c0: 03c8 98bd 73a6 9bbe e148 4abe 8662 173e
000001d0: 45b8 f6be 0782 583e 8a32 4fbd 8606 0cbd
000001e0: 19f2 6ebe a8be 9ebe cbb1 f6be ff5e 01bf
000001f0: 1398 d83d 7f75 86bc 0dba babe 500a c6bd
00000200: 320b 883b d8e8 443e 0b28 40bd e4ee 58bd
00000210: 9848 2fbb a889 7ebd 10d2 803d f55a fc3d
00000220: bd85 bfbd 0078 ab3d e7a5 0b3d 6815 1e3d
00000230: 70d9 bdbe aec1 04be 08f1 b43d 7b16 033c
00000240: f490 05bc c0c4 593d 33d9 ce3d fcc4 2dbe
00000250: c0a5 33bd 3004 5f3e 6c71 af3d 0951 f3bd
00000260: 4ce6 d5bd 68f6 ae3d 349d 313d 8a33 b8be
00000270: 7408 0dbf 732e 97bb 2b74 373d 487b 1c3d
00000280: 4e95 d03d 63d8 09bd 7163 d43d 510d 223d
00000290: 1741 dc3d 4c12 82bd 1724 b1bd 765e b8bd
000002a0: 1cb2 d8bc e574 6cbe 588b 823c 91a8 dabc
000002b0: 9956 093e 472e e23d 3b63 67bc 1b31 66bc
000002c0: dd40 3dbe 2b71 643d 93e3 083e 7c39 0abe
000002d0: 4472 1dbd 2442 b13d fe7e 833e 947c cc3b
000002e0: 47ed 313d 8a6e 99bd 813c a3bd 6872 57be
000002f0: b76a 463e 938c 2d3e 5b68 173e 1368 af3d
00000300: 50f4 7a3c dac5 4dbe f9ad 223e a1c8 ef3d
00000310: 922f 1e3e a38d 91be a1f0 273d b33c a1bd
00000320: f6c1 7dbd faaa 1f3e 2d1a 913d 6486 7b3e
00000330: 31a1 58be 9eb1 00be eebe 34be 7d3c 7a3e
00000340: e9b8 4abe e8ce 9dbd c132 b0bc 8d01 69be
00000350: c4c6 873d d646 73be 0a58 0f3e 50f4 9cbd
00000360: b3fd 683e 17ff c63e 7dd9 29bd 366b 4abe
00000370: 68c9 8bbe e4d4 4c3e d190 923e 78ad 9dbd
00000380: 1fba fdbb c06c 00bf fef5 12be 89f1 d2be
00000390: 2dcc 10bd 3c77 7cba 97e6 30bd ff95 f8be
000003a0: ae83 033f ea15 0bbe ed93 84be 1843 123c
000003b0: 5899 533e 1f36 a2bd 1c1d 033e 0a2e a83e
000003c0: 87d0 7dbd fbf9 9d3e 648e 50be 05a6 c63d
000003d0: 2f1f fd3d 9098 283d 3652 a6bc 6f8c 0b3d
000003e0: de38 5abe a5ce 063e dd3d 7bbd fe13 f73d
000003f0: 1c2e 90bd 3edd 2cbe a104 1d3e 5852 92bd
-0.2407849 -0.2150737 -0.20927897 -0.26611355 0.051063024 -0.29800287 0.049920663 -0.19635624
-0.43585855 -0.19741294 -0.032811064 -0.03607551 -0.58741724 -0.06549777 0.07317886 -0.035188455
0.035872504 -0.20359023 -0.19113432 -0.4574283 -0.08665361 -0.2754571 -0.14207451 -0.23263735
-0.09245895 -0.082490325 -0.24366494 -0.50504744 -0.065946154 -0.29678115 0.026296211 -0.28572655
-0.2479632 0.013727261 -0.32268792 -0.38279596 0.25189844 -0.27523932 -0.41306293 -0.2790034
-0.118359774 -0.22348626 -0.1373359 -0.21602611 -0.2361847 -0.041097052 -0.1948987 0.058406964
-0.2273556 -0.032863747 -0.16835317 -0.09710625 -0.01922591 -0.32294682 -0.29337156 -0.22935915
-0.0729705 0.0686799 0.24129035 -0.70907307 -0.38074782 -0.27060035 0.08124121 -0.038037524
0.1338233 -0.052794073 0.016360061 0.14730637 -0.6359569 -0.16945228 -0.5462164 -0.4853915
0.117151864 0.21820982 -0.38230425 -0.49724412 -0.14864196 -0.09814508 -0.16547808 -0.2538293
-0.34999138 -0.26580483 -0.4934244 0.103847 -0.07495654 -0.059957255 -0.30286402 -0.2513024
0.060964987 -0.34138435 -0.23860975 -0.0785914 -0.07761313 0.4864916 -0.6859306 -0.053175572
0.20194453 0.097904265 -0.4517025 -0.48837218 -0.2724321 -0.10186767 -0.117320366 -0.18521105
-0.090216465 -0.30872613 -0.20628609 -0.2689481 -0.2501112 -0.13249671 -0.09787105 -0.49991924
-0.07460024 -0.30400428 -0.19754364 0.14783677 -0.48187461 0.21143351 -0.050585307 -0.03418591
-0.2333454 -0.31004834 -0.4818252 -0.5053558 0.10575881 -0.016413448 -0.3647007 -0.09669936
0.004151725 0.19229448 -0.046913188 -0.0529622 -0.002674615 -0.062142998 0.06290066 0.12322036
-0.093516804 0.083724976 0.034093764 0.038594633 -0.37079954 -0.12964508 0.088350356 0.008000965
-0.008152235 0.05316615 0.10100021 -0.16969675 -0.043859243 0.21778941 0.085665554 -0.118806906
-0.10444316 0.08543092 0.04336281 -0.3597682 -0.55091023 -0.0046136915 0.04478852 0.038203508
0.101847276 -0.033653628 0.103705294 0.03956348 0.107546024 -0.06351146 -0.08649462 -0.09002392
-0.026452117 -0.23091467 0.015935585 -0.026691707 0.1341194 0.11043983 -0.0141227795 -0.014049794
-0.18481775 0.055771988 0.13368063 -0.13498491 -0.03843905 0.086551934 0.25682825 0.006240437
0.043439176 -0.07491787 -0.079705246 -0.21039736 0.19376646 0.16948156 0.14785902 0.085647725
0.015317038 -0.20095006 0.15886678 0.11708189 0.15447834 -0.28428373 0.041000966 -0.078729056
-0.061952554 0.15592566 0.07085071 0.24562985 -0.2115524 -0.12567756 -0.17650959 0.24437137
-0.197971 -0.0770548 -0.021508576 -0.22754498 0.066297084 -0.2375749 0.13998428 -0.076637864
0.22753029 0.38866493 -0.04146718 -0.1976746 -0.27302098 0.20003086 0.2862611 -0.07699102
-0.0077431346 -0.5016594 -0.14351651 -0.41199902 -0.035350967 -0.00096308044 -0.043188658 -0.48551938
0.513728 -0.13582578 -0.25894108 0.008927129 0.20663965 -0.07920479 0.12804073 0.32847625
-0.061966445 0.30854782 -0.20366818 0.096996345 0.123594634 0.04116112 -0.020302873 0.034069475
-0.21310756 0.13164766 -0.061338294 0.1206436 -0.07040045 -0.16881272 0.15333797 -0.07144612

lstm.bias_hh_l0 f4 [256]
00000000: 9f45 90be ff8a d4bd d8b5 63be 2d6e a3be
00000010: 43e0 173e 17f4 0dbe 43f1 2c3d 9aa7 90be
00000020: 2227 e8be 5ca8 a1be fa51 c0bd bb7b d03c
00000030: bfb7 fabe f220 6ebd 518f 473d 80ff 17bd
00000040: 7c39 743e f86e 96be 124c 64bd e8a2 d5be
00000050: 3cdd 9abd 88dc 53be 2642 a1be f76d 84be
00000060: 74ad 32be 40cd cbbd 25a3 03be ce54 d3be
00000070: 5bdb 39be 2072 aebe 72db 7f3a 541b aebe
00000080: 45b8 a3be f9f9 a9bc 56b5 8ebe 5533 9cbe
00000090: ae13 843e dc70 afbe 8c41 c2be 748b 43be
000000a0: 4d06 d8bd 81f9 00be 9bbf 69be 33ee 38be
000000b0: 9487 68be 5ffe d2bd e80b 5abe 47fd babd
000000c0: dbc2 53be 46cf ab3d 76cf fabd 4869 16be
000000d0: bc11 f3bc b6a4 a5be bf2e 7ebe 82c5 47be
000000e0: 8e9d 9b3d 07f3 593e b0fb 893e d0b8 47bf
000000f0: 27dd 7cbe 81de 9ebe 3ff9 f73d a7d4 5abe
00000100: 6947 2fbd 67c6 06bd a15c 0a3e d3d6 ae3d
00000110: e613 2abf 375b 70be 7271 06bf 2cce eebe
00000120: 4c1f 8c3c d1c7 853d 9edd b4be ea29 ecbe
00000130: 9873 1ebe 3524 893d 79d8 3abe 25fc d6be
00000140: 164b eebe 9419 f4be d9bf 32bf a37f 78bd
00000150: f029 d2bd bd7f f2bd 4228 d5be 6934 38be
00000160: f351 7ebd b530 c1be 3c9d b2be 09a1 59be
00000170: 9ace e1bd a412 ac3e bc96 48bf 16f3 84bd
00000180: b340 5d3e a553 cb3d f6a3 c0be f614 adbe
00000190: 13de 91be c296 01bd f162 ecbc 008d b4bd
000001a0: ebab 163d 45f9 b2be 69c8 63be 2d2a 5cbe
000001b0: b478 16be 119f 98bd 77b3 213d 2bbf 2ebf
000001c0: 83e4 cfbc 07d3 b2be bb03 c2bc cd98 8a3d
000001d0: 7c92 f1be 48ac 133e cdea 053e d3de dd3c
000001e0: 0080 d3bd ba98 b0be a73c dabe 578b f2be
000001f0: 7e55 2e3e 7ef0 c43d 7232 9cbe b5d7 47bd
00000200: 987b 26be 2c84 363e d414 a53c 8234 51be
00000210: 5d32 c7bd a19b 07be db52 893a 6f3b 5d3d
00000220: 0487 2fbe 26ff afbd a6bd 29bd 46f7 14bd
00000230: 1ba3 ccbe f1cc d6bc a4eb 263e 6399 423d
00000240: 9231 92bd f0ad b0bd d6df e43d abe1 f1bc
00000250: 4550 b53c 5314 193e 596a d53c 119c f5bd
00000260: cadf 673d 93c7 bd3d a6bc 093e d27e bcbe
00000270: 87a4 0bbf a305 ac3c 8dda 533d c5bc 863c
00000280: 9a2a 0b3d 7b38 34be 9d11 133e 800a 373e
00000290: 0d51 ccbc 20f3 1ebd abf5 cabd ec02 cdbd
000002a0: 7c6a 02be 6343 f8bd 7d6f 1fbd 1acc fcbc
000002b0: dbe6 273e 73f6 3e3d 4f6b d03d 2e2f 6a3d
000002c0: 9f50 36be c960 b6bd d219 103e 9dc6 953c
000002d0: 5ec4 74bd 0fc2 e53d 8271 073e 16a9 1abe
000002e0: 3332 dcbd df9b cd3d 2e0d d6bd d8f8 9cbe
000002f0: 37b7 2d3e 34f1 423e bab8 c53d c4ad 023e
00000300: 2166 a5bb 08d7 14be 9b4f 1c3d b995 8c3e
00000310: 15dd f33d 6999 70be 3834 093e 95bb 85bd
00000320: 6a60 8e3d 32df fd3d 5a5a bf3d fc6b 863e
00000330: 0202 c6be a295 3abe b22e c0bd 2836 743e
00000340: 285f a5bd c19c f4bd 4840 63bd d68a a0be
00000350: c28b 503e 9e83 47be 8024 343e d689 04be
00000360: 2339 8a3d c814 4b3e bee8 b23d 3aeb 7dbe
00000370: 1dc6 65be 1364 553e 278a a83e c925 0cbe
00000380: b39c 673c 4c67 ccbe ef60 3ebe 2bb0 a7be
00000390: 14f1 283e eadc d03d 4075 0bbc b382 abbe
000003a0: 54b9 d73e f1ae 04be 6dfc 68be 8ec4 8f3d
000003b0: 0b8a 243e aabf e8bd e168 163e c7fd be3e
000003c0: a20e 623d 8365 153e ee68 ecbd 6d03 a43c
000003d0: 711d 8e3d 2db4 593d 1252 59bc bd1c 283e
000003e0: fe21 0abe de55 9f3e f385 6fbe 7508 0e3e
000003f0: 3fa8 84bd fe6b 72be 373f 303e ab59 0fbc
-0.28178117 -0.10378074 -0.22237337 -0.31919995 0.14831643 -0.13862644 0.042222273 -0.2825287
-0.45342356 -0.3157376 -0.09390636 0.025449624 -0.48968312 -0.058136888 0.04872066 -0.0371089
0.23850054 -0.29381537 -0.05573661 -0.4172585 -0.07561728 -0.20689595 -0.3149578 -0.25865147
-0.1744898 -0.09951258 -0.12855203 -0.41275638 -0.18150084 -0.34071445 0.0009760178 -0.34005225
-0.31976524 -0.020749079 -0.27872723 -0.30507913 0.25796264 -0.34265792 -0.37940633 -0.19096166
-0.10548077 -0.12595178 -0.22826998 -0.18059616 -0.22707969 -0.10302424 -0.21293604 -0.0913034
-0.206798 0.08389144 -0.12246601 -0.14688599 -0.029671542 -0.32352227 -0.2482252 -0.19508937
0.075984105 0.21284114 0.26949835 -0.78016376 -0.24693738 -0.31029132 0.12108087 -0.21370183
-0.04279271 -0.032904055 0.13511898 0.08537068 -0.6643661 -0.23472296 -0.52516854 -0.46641672
0.017104767 0.065322526 -0.3532533 -0.46125728 -0.15473783 0.06696359 -0.1824664 -0.41989246
-0.4654166 -0.47675765 -0.69823986 -0.0606686 -0.10261905 -0.118407704 -0.41632277 -0.17988743
-0.06208987 -0.37732473 -0.34885585 -0.21252836 -0.11025734 0.33607972 -0.78355 -0.064916775
0.21606712 0.09928063 -0.37625092 -0.33805054 -0.28489742 -0.031637914 -0.028855773 -0.08815956
0.036785048 -0.34955803 -0.22244419 -0.21500464 -0.14694482 -0.074522145 0.03947779 -0.6826045
-0.025377518 -0.34926626 -0.02368342 0.06767426 -0.4718207 0.14421189 0.1307785 0.02708379
-0.103271484 -0.3449152 -0.426244 -0.47371933 0.170248 0.09616183 -0.30507237 -0.0487897
-0.16258085 0.17823857 0.020151533 -0.20430186 -0.09726403 -0.13242961 0.0010476963 0.05401176
-0.17141348 -0.085935876 -0.04144063 -0.03636863 -0.3996819 -0.02622077 0.16300827 0.047509562
-0.07138361 -0.08626926 0.11175506 -0.029526552 0.022133002 0.1494916 0.026051687 -0.11992658
0.056609906 0.092665814 0.1345087 -0.36815506 -0.54547924 0.020998782 0.0517221 0.016447434
0.033976175 -0.1759967 0.14362188 0.17875099 -0.024940992 -0.03880608 -0.09910139 -0.10010323
-0.12735933 -0.12122228 -0.038924683 -0.030859042 0.16396658 0.04662175 0.101767175 0.0571739
-0.17804192 -0.08905179 0.1407235 0.018283183 -0.059757583 0.11218654 0.13226894 -0.15103564
-0.10751762 0.10039496 -0.104517326 -0.30658603 0.16964422 0.19037324 0.096543744 0.12761599
-0.005047575 -0.14535153 0.038161855 0.2745798 0.119074024 -0.23496021 0.13398826 -0.06529919
0.06951983 0.12396087 0.09343405 0.2625426 -0.38673407 -0.18221143 -0.093839064 0.23848784
-0.0807479 -0.11943961 -0.055481225 -0.31355923 0.20365813 -0.19483802 0.17592049 -0.12943205
0.06749179 0.19832146 0.08735798 -0.24796763 -0.22438855 0.20838957 0.32917902 -0.13686289
0.014136481 -0.3992256 -0.18591665 -0.32751593 0.16498214 0.10198386 -0.008511841 -0.33498153
0.42133582 -0.1295736 -0.22752543 0.07019912 0.16068284 -0.11364682 0.14688446 0.37302992
0.055189736 0.14589505 -0.11543451 0.020021165 0.06939209 0.053150345 -0.013264196 0.16417213
-0.1348953 0.311202 -0.23390941 0.13870414 -0.06477403 -0.23674008 0.17211615 -0.008749406

lstm.weight_ih_l0_reverse f4 [256, 24]
00000000: 466a 333f 807d 263f d80d 033f f001 4a3f
00000010: 115f afbe 0cc8 a0bd e5c3 773e fef9 1abc
00000020: 4b4a 2a3f ccb4 843e c80c 54bd c5d9 8bbd
00000030: b903 1b3e 8d2d ec3d b81e 043e afe0 363e
00000040: ae2d 633e 2822 853e 68de ea3d 4bce 323e
00000050: cac9 183e 1953 733e eaa4 693e a123 7f3e
00000060: 30bd d7bd bfc5 c53c accc d1be e537 83bd
00000070: 956d 513e ab24 eb3e 6af2 e63d 3e50 3b3e
00000080: 3627 8f3d e518 adbe ec1e fc3d f5ee e5bc
00000090: 73a1 8abd 816c 9cbd acfa bbbd c52d d4bd
000000a0: 8a1e c8bd e1f6 bb3c 99ea 48bd 22a9 8ebd
000000b0: c7bb bc3c a0c4 8fbd 085e 33be bc25 18bb
000000c0: e915 90bf 5489 77bf ce6a 9abf 91bd 5ebf
000000d0: b06b d1be b335 133d c6fb b83f 7d2e b23f
000000e0: 4427 64bf 1e5e 96bf 0b29 3d3d 9064 e9bd
000000f0: 5906 b8bd 7bbc c2bd 72a8 88be 3c4b 51be
00000100: 4a96 5cbe c4d7 63be d833 21be d337 62be
00000110: 9a5c 94bd 7fee 2cbe cb44 66be 3915 76be
00000120: 82be 0f3d 3094 0c3d 0fe7 b3bc fd65 4f3c
00000130: f3cb de3e 56b2 1abf 3181 603e 6beb 173e
00000140: 6232 85bd 914a 18bf f5a1 be3e d853 7c3f
00000150: e219 d4be 9bac 86be 287c 88be 7012 e8be
00000160: 4ba4 bdbe 8ca2 77be da53 d7be b577 79be
00000170: ade8 acbe 9b2e b2be 5b9c d5be 2a7f 8cbe
00000180: 22fe b2be 5b02 3bbe a3de c4be 5856 8bbe
00000190: 24e8 a7bd aabb be3e e65b 9fbe 5b8b a2be
000001a0: 2181 aa3e f5bb 08bf b24d ac3e e6c7 0e3f
000001b0: dcf2 aabd 0165 ddbd ab74 59bc bf96 17be
000001c0: ca44 6bbd be3c f5ba f668 a2bd 5efe d2bd
000001d0: ca9e 0cbe 8224 f5bd 2466 9dbc b5e1 25be
000001e0: 9319 97bc c8f8 d33d 28c5 b4be f512 d2bb
000001f0: b03c 4b3d 2e08 57be 0079 94be 46b3 c4be
00000200: 37df 6fba aca2 acbe 3a57 7b3e 0482 203d
00000210: ed8c 103d 001f 7d3c 043e 1c3e fb6b 82bb
00000220: 5d93 7a3a 2622 213e 30fe 1d3d 931b 083e
00000230: 4779 4a3c cbd8 c43d ccf7 063e 3e69 853d
00000240: 5e6e 49bc a777 733e 8050 43be cc9d d53d
00000250: c60a 303f 3b44 98be e012 4fbe df7d 2abe
00000260: 9139 cf3d 7bca 25be a2dc 0ebd b274 ad3e
00000270: ca56 b2bd 34cb b2bd ac8b e8bd 6e2f c1bd
00000280: ab5f 19bd 1458 57be 4b94 59be a3f5 e1bd
00000290: b1a1 3cbe 2bf0 dcbd 0339 fbbb d832 fd3a
000002a0: 117f 82bf b3a9 84bf 4b0f 4ebf 907f 86bf
000002b0: c9dc b1ba 7e67 d3be 5799 d23e f203 783e
000002c0: a797 a9bf 89b9 83bf bf93 36be eef7 00bf
000002d0: 9c6a 9ebe ca58 92be d9b7 23be 5c93 35be
000002e0: 9a51 87be e65b 08be 4a6e 1cbe f89f acbe
000002f0: bde5 93be 4534 a2be c685 aebe 1f30 afbe
00000300: 4182 ab3e 5dbf 0e3f a4cd ce3d 1f6d 543e
00000310: ddea b7bd 4f06 4a3f 5d8e c83e 8513 393d
00000320: 913c 2d3e 51b6 a73d 71ee 1c3e bf1c 34bf
00000330: 3f98 94be fce4 87be 1bf6 39be 71d5 52be
00000340: 9fea 84be cc0c 90be 20b8 32be 2eb3 8abe
00000350: 5f2f 93be 2ed3 acbe 0c99 1ebe f778 a5be
00000360: 6552 2e3d 6ef1 b2bd 7eb1 47bb ccad 993d
00000370: 8120 ab3e bf00 c33e 51ec 0dbf 9cf7 0abf
00000380: 34f9 93bc 97bc 203a 282e 113f b534 3f3f
00000390: 2ea4 1bbe 16ad 80be f933 19be d1b5 60be
000003a0: 561f 29be 54cc f1bd e5bb 54be a502 68be
000003b0: 90fb 88be fd01 82be 59a5 1abe 4111 5abe
000003c0: a861 ee3d d73b 5f3e 10d7 42be fb7e 463d
000003d0: a581 a93d b9f6 203f 0f77 66be 0b9d ccbd
000003e0: 8c43 363e 0ce2 92be f793 883d 6b19 6dbe
000003f0: a368 8b3d c2a0 41bc 00e4 063e c5e3 c93d
0.70084035 0.6503525 0.51193 0.78909206 -0.34252217 -0.07850656 0.24195822 -0.009459017
0.6651961 0.25919187 -0.05177 -0.068286456 0.15138139 0.115321256 0.12902343 0.17859147
0.22185394 0.26002622 0.11468202 0.17461507 0.14920726 0.23762168 0.22816816 0.24915935
-0.105341315 0.024142144 -0.40976465 -0.064071454 0.20451958 0.45926413 0.112767056 0.18292329
0.06989901 -0.33808056 0.123105854 -0.028068045 -0.06769075 -0.07637883 -0.09178671 -0.10360292
-0.0977145 0.02294487 -0.049051855 -0.06965853 0.023038758 -0.07019925 -0.17516339 -0.002321585
-1.1256686 -0.9669392 -1.2063844 -0.87008005 -0.40902472 0.035939883 1.4451835 1.3920437
-0.89122415 -1.1747472 0.04618172 -0.11396134 -0.08985586 -0.09508606 -0.26691014 -0.20438856
-0.21541706 -0.22250277 -0.15742433 -0.22091608 -0.07244225 -0.16887854 -0.2248718 -0.24031533
0.03509379 0.03432101 -0.021960763 0.012658593 0.43514976 -0.6042837 0.21924283 0.14835899
-0.065037504 -0.5948878 0.37232938 0.98565435 -0.41425997 -0.26303563 -0.26657224 -0.45326567
-0.37039408 -0.241831 -0.4205616 -0.24362071 -0.33771268 -0.34801182 -0.41720852 -0.27440768
-0.34959513 -0.18262617 -0.38451108 -0.27214313 -0.08198574 0.3725255 -0.311248 -0.31746945
0.33301643 -0.534118 0.33653027 0.5577377 -0.08347103 -0.108102806 -0.013272445 -0.14803599
-0.05743865 -0.0018710119 -0.07930176 -0.10302423 -0.13732448 -0.11969854 -0.019213744 -0.16199382
-0.018444812 0.10350186 -0.35306668 -0.0064109513 0.049618423 -0.20999214 -0.28998566 -0.38418025
-0.0009150388 -0.3371786 0.24544993 0.039186493 0.035290647 0.0154492855 0.15258032 -0.0039801574
0.0009558702 0.15735683 0.03857249 0.13291769 0.012358016 0.096116625 0.13180465 0.06514214
-0.01229438 0.23776112 -0.19073677 0.10430488 0.6876644 -0.29739556 -0.20222044 -0.16649579
0.10118402 -0.16190521 -0.03487838 0.33878094 -0.0870796 -0.08730164 -0.11354765 -0.094328746
-0.03744475 -0.21029693 -0.21247976 -0.110331796 -0.18421055 -0.10787996 -0.0076667084 0.0019317521
-1.0195028 -1.0364288 -0.80492085 -1.0507679 -0.0013569827 -0.41289896 0.41132614 0.24220255
-1.3249406 -1.0290996 -0.17829798 -0.5037831 -0.30940711 -0.28583366 -0.15988101 -0.17731994
-0.26429445 -0.13316306 -0.15276447 -0.33715796 -0.28886214 -0.31680503 -0.34086436 -0.342164
0.33497813 0.5576075 0.100978166 0.20744751 -0.089803435 0.78915876 0.39171115 0.04518463
0.16917636 0.08189071 0.15325333 -0.70356363 -0.29022405 -0.2654189 -0.18160288 -0.20589234
-0.25960252 -0.28134763 -0.1745305 -0.27089828 -0.2874708 -0.33754867 -0.1548807 -0.3231885
0.042559046 -0.08737455 -0.0030470784 0.07503852 0.33423236 0.38086507 -0.55438715 -0.5428407
-0.018063165 0.00061316177 0.56711054 0.746898 -0.15199348 -0.25132054 -0.14961232 -0.21944357
-0.1651586 -0.118065506 -0.20774801 -0.22657259 -0.26754427 -0.25392142 -0.15102138 -0.21295644
0.1163972 0.21800171 -0.19027352 0.04846094 0.08276681 0.6287647 -0.22506355 -0.09990891
0.17799205 -0.28688085 0.06668847 -0.23154227 0.06807067 -0.011818113 0.13172913 0.09857897

lstm.weight_hh_l0_reverse f4 [256, 64]
00000000: a88d 413f de9f 39bf 5af7 46be 0d86 3f3f
00000010: fff7 82bf 1daa ccbe 0a6f e5bd 699c 243f
00000020: 4d60 623f a013 62be 6b53 23bf 6430 4f3f
00000030: 53dd 443e e759 823e 99b0 bdbe d3a6 a73e
00000040: 9101 043f ab24 c03e 2c2c a43e d118 633e
00000050: 24ba b1be 5620 dd3e 680e a2be d921 c63f
00000060: be32 933d 6918 c83e b76b 613f cc18 72bd
00000070: ae40 66bf 9e08 52be 5b7c 1bbf 28a5 c43e
00000080: 6927 943f c10c 35bf d16b 45be 2c4c 8abf
00000090: fc0d 52bc 9453 193d 263d 41bf cbc2 1b3f
000000a0: 4407 073e 6d56 583f 333f af3c 58b5 8b3e
000000b0: 4bb2 e4bf 1320 d7be fa7e ba3d fffb 1fbe
000000c0: 3f41 85be 2d97 07be 8d1f 1fbe d969 b9bf
000000d0: ecbf 0dbe 2858 76bf 3e24 fcbc f1d4 073f
000000e0: efa8 46be bc84 38bf d7f1 31bf 6cd0 96bf
000000f0: bf10 c1bf 18b0 01be c273 223f d8ee 013f
00000100: 2fc3 8abe 60e9 ca3e 2299 00bf 8422 8e3d
00000110: 1bef 56bf 8171 e7bd 3cbd b2bd 4080 2fbf
00000120: 9138 70bf 1eaa 743f 5ab8 353f ac9f 683f
00000130: fc07 463e 0322 433f 9772 2ebf 8914 dc3e
00000140: 3426 163f 1b00 68be 6d02 8d3d 68cd 683f
00000150: 43bc 1abe c117 1bbf ff6f cf3d 4f7a 0d3f
00000160: d050 12bf fb8f 3abf 1fed 53bf f15e 663f
00000170: 8def 1a3f 26d7 ba3d 0f7e 26bf 0256 04bf
00000180: 8c17 f23e 7c97 743f 015c 7cbd e3a8 323e
00000190: 0124 3ebf fedb 1c3f 1bb1 2bbd 01c8 2dbf
000001a0: 6ede c13c fc2f 06bf bbc7 4b3e 52fa 3abf
000001b0: 0945 1bbf 177b da3d d2f8 253f 684d 3fbd
000001c0: b8ab 81be c2ef 84be 04fe 78bf 66d4 04bf
000001d0: dcd1 86be 594f b73c 3ceb a3be cc33 17bf
000001e0: a092 fabe 8c03 18bd a815 463e 0f4b 7cbe
000001f0: 6f92 86be e463 113e 4fd2 5c3f b33e aa3e
00000200: 471c 9bbd abf3 d73f 3e28 bf3e a8a3 24bf
00000210: e114 713e 32cb 1b3f f1ae 18bf 6cda b43f
00000220: 5604 85be ce5e 81bf e4c7 aebe 3bc0 41bf
00000230: c3f9 153f 9d5b 743e bb56 073f 8184 a33f
00000240: 6638 8f3e 4a13 f3be 2928 613f 55bc 31bf
00000250: 94cc 00be db1e 1e3f 4633 3f3e 7164 d73e
00000260: cf07 4c3f f4a9 72bf 1b81 1e3e c2d1 253f
00000270: 36c9 e8be a3b2 063e 994d 82be fef0 4dbe
00000280: 00b8 53bf ad07 98be a678 3c3f 319a 4d3f
00000290: 9001 543f bea7 ffbe f55a 4dbf 0181 bdbe
000002a0: a89d 203f 0105 173f 29e8 cc3e adcf ff3f
000002b0: c5ef 04be 5524 d73e f698 8e3e 3f42 cd3a
000002c0: cf0b 813f ace3 3ebf 489e 94be ba01 2f3f
000002d0: 7ce1 e73e 58a5 a0bd 1fc6 793e 1f15 5b3e
000002e0: eb4e a8bf 9e22 5f3d e267 32bc 1845 b03e
000002f0: eb59 b53f dbe2 58be 8ca7 18bf 7711 b9bf
00000300: 9d7d 4d3f 9690 983d 80b5 04bd 0f9a 6abe
00000310: d26f 553f 6aee 31bf e126 2b3f 3204 2f3e
00000320: 95c8 2dbf f437 d9bc c97c 093f 5314 7a3e
00000330: c080 063f 627f 22be 6c88 3e3f 46b2 173f
00000340: cd83 b73e 1b7e a73f 0d7c 22bf 6d20 183f
00000350: bec0 303f 22ad 09bf fdcb 23bc 25ae dfbe
00000360: d202 93bc af11 31bf c50c df3e c791 8bbf
00000370: b8ff 213f 87ff a4bd 122d bf3e 85c0 27bf
00000380: d6b0 e8bd 8e3e d63e 05bc bbbe e641 25bf
00000390: e839 bd3e 82e4 f0ba 190c 923e b3f1 3d3e
000003a0: cae4 c63d 663d 623f ee80 f5be 0562 2abf
000003b0: 7c6e 513e 709a da3d 383f fc3d eea5 9bbf
000003c0: f442 f8be c29e d33e d72b 173f 8d64 59bd
000003d0: 879e 30bf 736c 8cbe 1b9e 7fbe c005 eebe
000003e0: 30ac 113f e8d4 4ebf 7722 02bf 2862 ba3e
000003f0: 4c10 3c3f f22a e2be af19 523f 3d09 9c3e
0.75606775 -0.7250956 -0.19430295 0.7481392 -1.0231932 -0.39973536 -0.1120282 0.6430116
0.88428193 -0.22077799 -0.6379916 0.80933213 0.19225053 0.25459215 -0.37048796 0.32744464
0.5156489 0.37527975 0.3206495 0.22177435 -0.34712327 0.43188733 -0.31651616 1.547908
0.07187413 0.39081123 0.88054985 -0.05910568 -0.89942443 -0.205111 -0.60736626 0.38407254
1.1574527 -0.70722586 -0.1927941 -1.0804496 -0.012820717 0.037433222 -0.7548393 0.60844105
0.13186365 0.84506875 0.02139244 0.27286792 -1.7866911 -0.42016658 0.0910625 -0.15623473
-0.2602634 -0.13241263 -0.1553938 -1.4485427 -0.13842744 -0.96228266 -0.030779 0.530593
-0.1940038 -0.72077537 -0.69509643 -1.1782355 -1.5083236 -0.1266483 0.6345788 0.5075507
-0.27102038 0.39631176 -0.5023366 0.06940177 -0.83958596 -0.11300946 -0.087275 -0.6855507
-0.93836313 0.9557208 0.70984423 0.9086864 0.19338983 0.7622377 -0.681436 0.42984417
0.58652043 -0.2265629 0.06885228 0.90938425 -0.15110879 -0.6058312 0.101287834 0.55264753
-0.5715456 -0.72875947 -0.82783693 0.8998862 0.60521775 0.091230676 -0.650361 -0.5169374
0.4728359 0.95543647 -0.06161118 0.17447238 -0.7427369 0.6127318 -0.041916948 -0.67883307
0.023665633 -0.5241697 0.1990041 -0.7303821 -0.60652214 0.10668009 0.64832795 -0.04670468
-0.25326324 -0.2596417 -0.972626 -0.51886594 -0.26331985 0.022376703 -0.32015407 -0.5906341
-0.4893999 -0.037112758 0.19344199 -0.24638008 -0.26283595 0.14198261 0.86258405 0.3325096
-0.07573753 1.6871237 0.3733539 -0.6431222 0.23543121 0.60856926 -0.5964194 1.4129157
-0.2597987 -1.0107057 -0.3413688 -0.75683945 0.5858423 0.23863073 0.52866715 1.2774812
0.27972716 -0.47475654 0.87951905 -0.69427997 -0.1257804 0.6176583 0.18671903 0.42068818
0.79699415 -0.9479058 0.15478937 0.6477319 -0.45466012 0.13154082 -0.25449827 -0.20111462
-0.82702637 -0.29693356 0.73621595 0.803134 0.82814884 -0.49932665 -0.80216914 -0.37012485
0.62740564 0.5899201 0.40020874 1.9985253 -0.1298209 0.42019907 0.27851075 0.0015660002
1.0081729 -0.7456615 -0.2902701 0.6836201 0.45289218 -0.07844037 0.24391983 0.21394776
-1.3149084 0.054476373 -0.010889025 0.34427714 1.4168066 -0.21180288 -0.59630656 -1.4458455
0.80269796 0.074494526 -0.032399654 -0.22910331 0.8337375 -0.69504416 0.668562 0.17091444
-0.6788419 -0.026515938 0.5370603 0.24421816 0.52540207 -0.15868905 0.74426913 0.592564
0.35842744 1.3085359 -0.63470536 0.5942448 0.690441 -0.53779805 -0.009997365 -0.4368755
-0.01794568 -0.6916761 0.4356443 -1.0903863 0.6328082 -0.080565505 0.37339073 -0.65528136
-0.11361854 0.418446 -0.36666885 -0.6455368 0.3695824 -0.0018378648 0.28524855 0.18549232
0.09711607 0.88374937 -0.47949928 -0.66555816 0.20452303 0.10673988 0.123167455 -1.2160013
-0.4848858 0.4133206 0.5905127 -0.05307441 -0.68991894 -0.2742649 -0.24962656 -0.46488762
0.5690336 -0.8079362 -0.5083384 0.36403012 0.7346237 -0.4417339 0.8207044 0.30475798

lstm.bias_ih_l0_reverse f4 [256]
00000000: 96d5 a33e da67 a6bd 517c a8bd c7f6 b4be
00000010: d569 82bd a9c2 1d3e 4348 06bd 1b4b 05be
00000020: 6d95 87be d232 87be ff06 c73d 8571 1cbe
00000030: 9edf 913e de0b 99be eb0a babe 808b ddbe
00000040: f502 93be 8e4a 4abe 563c e1bb 672f c8bc
00000050: b68a 603e f290 17bd b3a0 4ebe e1cf 163d
00000060: e196 0c3c 7b21 a4be eb80 88be e6f2 9fbd
00000070: e1e3 3b3d 02d3 8fbe b16a 24bd dece b3bd
00000080: 17e4 f3be 2073 9b3d 022e f2bc 820e 5dbe
00000090: 9706 bc3d ad66 f0be 7c2d 30bf 5454 1c3e
000000a0: 006b 73be 6cdb cdbe 2e4f a03f eb77 0abe
000000b0: a5ca 5e3e b2d7 29be afa4 18be cf7b c03c
000000c0: 80df a5be f42a e9be 11ae 74bc d307 4d3e
000000d0: ce03 dcbe c3a0 c8be c118 febd 3168 b3be
000000e0: e2e4 c9be 71cb f33d a3ae 8dbe a0bd 82bd
000000f0: 45fe 75be 4256 6f3f 60b4 cd3d f014 64bd
00000100: 506f 06bf 9213 05bf 7556 d3be 8567 eebd
00000110: 30a9 d2bd 52a3 46bf 48be 23bf 101b 80be
00000120: d5dd 193e 64a7 3ebe c45b 5bbf a367 fabe
00000130: fbf9 5ebf 5d1b 053b 0952 e33d 0c9a 0e3e
00000140: 5855 a03d f32a 85bf c2af 733c 5531 51be
00000150: 7c86 04bf 38da bbbe 0069 3ebe 0718 43bf
00000160: b5a0 38bf 4b91 55be a6c4 833e f44e fabe
00000170: f7ea 02bf 33dc 22be fcca f7be 64ca 8ebe
00000180: aa0a d0bd 0204 14be 93bb 70bd f269 30bf
00000190: c4c4 c53b 4de8 8bbf fffd 00bf 82e1 8fbf
000001a0: d8fe 8ebe 7f93 783c 689f cfbe d7a1 4abe
000001b0: a963 bebe ae99 933e 3e7a 27be 4ae0 82be
000001c0: 906a 5e3e 14f1 babe 1edb e3bd cb8f 4ebe
000001d0: 7203 2cbd 2986 7f3e 486f 2ebe afe0 b13e
000001e0: 9d23 de3e 5e3a 2abf 9cc9 85be 7b71 2cbe
000001f0: 4a9e 6ebe ccee 0bbf 4886 cdbe 9ea4 b1be
00000200: 7e02 10bd 229a 80bd 7cd3 3cbe 490c f3bd
00000210: 5953 51bc c183 2abd b355 ed3b 0409 25be
00000220: 41cb 56be 8659 1c3d b0e8 cc3c ea3f 23bd
00000230: 350a c2bd 4f8d 673e 96f4 98bd b5c2 cfbc
00000240: 8231 29bd 37ae 18bd 03d7 ec3c f8a5 54bd
00000250: 5993 7bbc 45cb 9bbd 7739 d1bc 88e6 b9bc
00000260: dbed 1dbd 72c2 9fbd cacd 733d 2689 de3d
00000270: c037 043e 7b59 653e a187 43bd 8ab2 73bd
00000280: fcc8 2f3d 5ec1 cd3d 0f51 7d3d 5683 71bc
00000290: 1d13 4ebd e330 843d 8d44 97be 2e15 d93d
000002a0: d3d6 04bd 6200 f73d 0374 afbd bde4 943b
000002b0: 8d7f 9e3c 8115 7abb 8f84 bd3c 1873 c4bc
000002c0: fe21 0cbe 9e27 c23d fb71 b93d 4779 233d
000002d0: 45ee 27be df21 183e b0eb 62bd f892 f43c
000002e0: 595b 88bc 5604 6e3c a77e df3e d163 283e
000002f0: a962 dcbd 1407 c53c 3c14 8e3d b98a 453e
00000300: 5d4b ca3e 8b08 893d 8dbf bdbc 3247 69bc
00000310: 1ce8 8dbd a0d8 0c3e f018 be3d 06ad 3cbe
00000320: 860b 21be 6ea8 46be 1e19 bf3c 3e1b 06be
00000330: f5e6 323d 46f8 28bf 1503 9bbd 622a b63c
00000340: e0f3 503d d6e6 5b3e 5bb0 c4bd 744d 423e
00000350: 361b 263f a487 4abe 20fb 39be ec35 423e
00000360: 5282 673d 28d3 25be b533 26bd 9844 0dbe
00000370: 3776 433d 190d 86be a184 fc3d 8545 1abd
00000380: 1ffb 53be 8986 47bd 4f06 ac3d 6dac a6be
00000390: 7747 4bbe 94ea 9e3e d063 7bbe a6fa 293e
000003a0: 4fda c7bd c2a4 ec3d bd7a 9f3e e8c5 163e
000003b0: 57ed 56bb 475c 6cbe 3936 b93e 6ff4 2abe
000003c0: 9396 90bd 232d 56be ee7a 653c e33a ee3c
000003d0: f14c febd 7a07 323d 7d15 0c3e c6a3 013e
000003e0: 9d5b 7b3d 5506 9d3e 9ac1 babe 6db6 243e
000003f0: 93ea 2bbe cf3e 9a3e 8a53 2d3e b9d1 893d
0.3199889 -0.08125277 -0.082268365 -0.35344526 -0.06367842 0.15406288 -0.032783758 -0.13016932
-0.2648119 -0.2640596 0.09718131 -0.1527768 0.2849092 -0.29891866 -0.36336455 -0.43270493
-0.28713194 -0.19755003 -0.0068736477 -0.024436666 0.21927914 -0.037003465 -0.2017849 0.036819343
0.008580894 -0.32056794 -0.26660857 -0.07810001 0.04587162 -0.28090674 -0.04014081 -0.08779691
-0.47634956 0.07590318 -0.029562954 -0.21587566 0.091809444 -0.46953335 -0.68819404 0.15266544
-0.23771286 -0.40206468 1.2524164 -0.13522308 0.2175699 -0.16586187 -0.14906572 0.023496537
-0.3239708 -0.45540583 -0.014934079 0.20022516 -0.42971653 -0.3918515 -0.12407065 -0.3504043
-0.39432436 0.11904038 -0.276723 -0.06383824 -0.24022777 0.93490994 0.100441694 -0.05568403
-0.525136 -0.51982987 -0.412769 -0.116408385 -0.10286176 -0.7759296 -0.6396222 -0.25020647
0.15026028 -0.18618542 -0.856869 -0.48907194 -0.8710019 0.00203105 0.11099631 0.13925952
0.07828778 -1.0403732 0.014873447 -0.20428975 -0.51767707 -0.36689925 -0.18594742 -0.7620854
-0.7212022 -0.20856206 0.25735968 -0.4888836 -0.5113978 -0.15904312 -0.48397052 -0.27888787
-0.10158284 -0.14454654 -0.058772635 -0.6891166 0.006035419 -1.0930268 -0.5038757 -1.1240695
-0.27928805 0.015171885 -0.40551305 -0.197883 -0.3718541 0.28828186 -0.16355225 -0.25561744
0.21720338 -0.36512053 -0.11125778 -0.2017204 -0.041995473 0.24953522 -0.17034638 0.34741732
0.43386546 -0.6649531 -0.26130378 -0.16840164 -0.2330257 -0.5466125 -0.4014151 -0.34695905
-0.035158627 -0.062793985 -0.1844005 -0.118675776 -0.012776219 -0.041629557 0.007242882 -0.1611672
-0.20975973 0.038171314 0.025013298 -0.039855875 -0.09474603 0.22612499 -0.07468526 -0.025361398
-0.04130698 -0.03727552 0.02891112 -0.051916093 -0.015354955 -0.0760713 -0.025540097 -0.022692934
-0.038556915 -0.078007594 0.059522428 0.10866003 0.12911892 0.22397415 -0.047736768 -0.05949644
0.042916283 0.100466475 0.06184488 -0.014740786 -0.050311197 0.06454637 -0.29544488 0.10599743
-0.032431435 0.1206062 -0.08567049 0.0045438693 0.01934793 -0.003815979 0.023134498 -0.023980662
-0.13684842 0.09480213 0.09054943 0.03991058 -0.16399486 0.14856671 -0.05540055 0.029855236
-0.01664512 0.014527401 0.43651316 0.16444327 -0.107610054 0.024051227 0.06937453 0.192912
0.39510623 0.066910826 -0.023162628 -0.014238166 -0.06929037 0.13754511 0.092821 -0.18425378
-0.15727052 -0.19400188 0.023327406 -0.1309633 0.04367729 -0.66003835 -0.07568947 0.022237007
0.051013827 0.21474776 -0.0960395 0.18974859 0.6488527 -0.19778305 -0.18162203 0.18965882
0.056520768 -0.16193831 -0.040576655 -0.13795698 0.04772016 -0.26181868 0.123299845 -0.037663955
-0.20701264 -0.048712287 0.08399641 -0.32553425 -0.1985148 0.31038344 -0.24549794 0.16599521
-0.09758436 0.115548626 0.3114833 0.14723933 -0.0032795274 -0.23082076 0.3617418 -0.16694807
-0.0705997 -0.20915656 0.0140063595 0.029080814 -0.12417019 0.04346416 0.13680072 0.12660131
0.061366666 0.30668893 -0.3647583 0.16085215 -0.16788702 0.30126044 0.16926399 0.067294545

lstm.bias_hh_l0_reverse f4 [256]
00000000: db40 a83e e922 08be 0c0f a0bd acfe a7be
00000010: ba75 84bb 58ec 763d 15a7 1fbd 2fc3 65be
00000020: 7679 a6be 5f44 29be e41c bb3d 63b4 84be
00000030: ec17 1d3e 21f7 e3be 4c5a aebe d2a0 e3be
00000040: fc6c c7be f3fb 26bd 3019 08bd 5cc0 1fbe
00000050: a90e 7b3e 370e 083d 2a77 f7bd f336 863d
00000060: 5830 3fbe 3fc2 9bbe 5f90 81be 2679 29bd
00000070: 5607 6a3d 55db 8cbe 9b6d c7bd 4ed6 61bc
00000080: bdd1 a2be cf60 a0bd d8c6 bebd 4613 6bbe
00000090: fe69 b93d bb4e 1bbf eaf5 1dbf 52c8 1a3e
000000a0: 8f17 a2bd fe71 cbbe 4445 a43f b84d bebd
000000b0: 6f7c 653e ecab 11be 5049 f2bd f512 c5bd
000000c0: 1632 acbe b2d5 b5be 37c8 d7bd 2855 d33d
000000d0: 87ca c1be cf89 9cbe 5401 37be f9d7 b5be
000000e0: 364a e8be 620d 0c3d 7737 8cbe 2207 c8bc
000000f0: 2af1 a1be 569b 673f 9949 5b3d 225a e8bd
00000100: b605 08bf 1b37 28bf a756 85be 4ab3 cebd
00000110: 8820 ebbd 7369 2abf b956 2bbf 407d 50be
00000120: 29c2 013e 8d4f 25be 1658 50bf 3b75 d6be
00000130: f95a 45bf bda5 493d b6fd e93d 61e0 6d3e
00000140: 9276 e0bd f808 85bf 748b a9bd 3953 15be
00000150: 9a8d 20bf 3100 bcbe 02bb 19be 6955 52bf
00000160: c37f 4cbf 6287 64be 7b9c 423e ecdc 02bf
00000170: 3d2c 1dbf 400c 41bd 1a77 acbe c64e d0be
00000180: 1de3 ac3d 3e5e 75be b8e0 22be 7005 51bf
00000190: b2a2 0d3e 823e 8ebf 1b9e b4be 2c3f 9dbf
000001a0: 4f0a 95be 4149 dabd fadf eebe 3900 9fbe
000001b0: 37c2 61be ccd4 bd3e 9051 0fbe 3337 c4be
000001c0: 2a6c 303e f41b 34be ee65 2fbe 2cb7 61be
000001d0: 89a6 a138 9cdf f93d e580 13be ce26 b33e
000001e0: b9e4 7d3e d9af 27bf 812f d7bd 3b85 b4be
000001f0: e6c0 0ebe 118c 10bf b817 aebe 2dc3 c0be
00000200: 3fdf 243b cebf 18bd 477e 50bd c11d 8abe
00000210: 22b0 48bc 472a afbd 7c0d 143e d24e 84bd
00000220: 61e4 eabd 1034 103e fcc7 4e3d 51d6 80bd
00000230: 0db4 acbd 1543 963e 31c3 2abe 96ab 46bd
00000240: a3c0 16be f348 923c 6d26 eb3d 11a8 8cbd
00000250: eea0 1c3d ebc5 06be 5597 40bd 938f bfbd
00000260: 88c2 5ebb 65a5 29be 4c4f 7f3d c95b a33d
00000270: 5e45 dc3d 98b9 c03d a400 103d 73e6 493c
00000280: e732 9e3b 2fd4 1ebd a382 f93d 8185 b93d
00000290: 0757 673c 624e eb3d 5f7a 62be d9ef 313c
000002a0: e8e4 97bd 94f5 833e 763c eebd 01af 353c
000002b0: 0e53 3fbb 18e0 93bc 6301 17bd b816 89bd
000002c0: f602 2fbe 9e15 37bb 2859 b63d e902 8ebb
000002d0: 4944 2abe 9fb5 903b bb3f 1ebe db1c 8bbd
000002e0: af05 aabd eeec 03be b2df 053f db6a a63d
000002f0: 99fc 2dbe ea90 91bd 4ed0 243b 845f 023e
00000300: 47b7 c33e 41c9 153d fc2b acbc fae6 c9bd
00000310: f599 86bd 8edc e53c b023 5d3e cc4b 42be
00000320: c442 01be 765a 13be 8665 1e3e 335f bfbd
00000330: 1b25 513d ff0d 08bf 071f b33a cdb3 23bc
00000340: 54e5 2bbe be7b 813e aadb 39be 7d1d a53e
00000350: 6137 253f 8fbc 47bd 9e88 1cbe c6a5 4b3e
00000360: a23a 313c 7dd5 21be c8af 1b3e 9d96 08be
00000370: c50b 8c3c e488 80be 66a8 40bd b408 c5bc
00000380: e333 babe 7f33 01be c1ce aabc 483a 04be
00000390: 6bd0 2fbe 1c03 a53e c2bc 06be 2283 f73d
000003a0: d94a 9ebd 81a6 9e3d 52e2 5b3e 5eaa 333e
000003b0: 42e8 dcbd 18be 83be abcc 923e d14a 57bc
000003c0: b591 e1bb b1d5 07be 2646 933b c859 2a3d
000003d0: 4d75 c23d 9ba9 c83d dfa8 013e d9da cd3d
000003e0: ec5c 323e 1b6f 703e 7c80 85be f699 493e
000003f0: 95cf 1ebe 3e31 813e dc90 153e 26c8 473d
0.3286198 -0.13294567 -0.0781537 -0.32811487 -0.0040423544 0.06028399 -0.0389777 -0.22437738
-0.32514542 -0.16529988 0.0913637 -0.25918874 0.15341157 -0.44524482 -0.34053266 -0.44458634
-0.38950336 -0.04076762 -0.033227146 -0.15600723 0.24517311 0.03321668 -0.120832756 0.065534495
-0.18670785 -0.30421636 -0.2530546 -0.0413753 0.057135902 -0.27511087 -0.097377025 -0.013784004
-0.31800643 -0.07830965 -0.0931527 -0.22956571 0.090534195 -0.6066701 -0.6170336 0.15115479
-0.0791465 -0.39735407 1.2833638 -0.092921674 0.22410749 -0.14225739 -0.118303895 -0.096227564
-0.33631963 -0.355146 -0.10536235 0.10318977 -0.3784983 -0.3057389 -0.178716 -0.35516337
-0.45369118 0.03419245 -0.27386066 -0.024417464 -0.31629306 0.904714 0.053536985 -0.113453165
-0.53133714 -0.65709084 -0.26042673 -0.100927904 -0.11480814 -0.6656715 -0.66929203 -0.20360279
0.12671722 -0.16143627 -0.8138441 -0.41886315 -0.7709194 0.049230326 0.11425345 0.23230125
-0.109601155 -1.0393362 -0.08278552 -0.14582528 -0.62716067 -0.36718896 -0.15012744 -0.82161576
-0.7988245 -0.2231727 0.19005005 -0.5111835 -0.6139563 -0.047130823 -0.33684617 -0.406851
0.08441756 -0.23961732 -0.15906036 -0.8164892 0.13831595 -1.1112826 -0.35276875 -1.2284904
-0.29109427 -0.10658503 -0.46655256 -0.31054857 -0.22046743 0.37076414 -0.13995957 -0.38323364
0.17228761 -0.17588788 -0.17128727 -0.22042531 7.708098e-05 0.12200853 -0.14404638 0.34990543
0.24794282 -0.655027 -0.105071075 -0.35257897 -0.13940772 -0.56463724 -0.3400247 -0.37648907
0.002515748 -0.037292294 -0.050901677 -0.26975825 -0.012249025 -0.08552986 0.14458269 -0.06460346
-0.11469341 0.1408236 0.05048369 -0.062908776 -0.084327795 0.29348055 -0.16676022 -0.04850348
-0.14721923 0.01785705 0.114819385 -0.068679936 0.038239412 -0.13161437 -0.04701932 -0.093535565
-0.0033990461 -0.16567 0.062331483 0.07976491 0.10755418 0.09410399 0.03515686 0.01232301
0.0048278454 -0.038776573 0.1218312 0.09058667 0.01411987 0.1148956 -0.22116993 0.010860407
-0.07416707 0.257733 -0.11632626 0.011089087 -0.0029193792 -0.018051192 -0.036866557 -0.066937864
-0.17090973 -0.0027936469 0.08903724 -0.004333843 -0.16627611 0.004416182 -0.15453999 -0.06792613
-0.08301865 -0.1288335 0.52294457 0.0812585 -0.1699089 -0.07107718 0.0025148573 0.12731749
0.38225767 0.036568884 -0.021017067 -0.098585084 -0.06572334 0.02805927 0.21595645 -0.18974227
-0.12623125 -0.14389977 0.15468416 -0.0934433 0.051060777 -0.53146356 0.0013665863 -0.009991598
-0.167867 0.2528972 -0.18150201 0.3224906 0.64537627 -0.048763808 -0.1528649 0.19887456
0.010817202 -0.15804096 0.15203774 -0.13338704 0.017095456 -0.2510444 -0.047035597 -0.024052002
-0.3636771 -0.126173 -0.020850541 -0.12912858 -0.17169349 0.32228935 -0.13157943 0.120855585
-0.0772912 0.07746602 0.21473053 0.17545459 -0.10786487 -0.25730968 0.28671774 -0.013140396
-0.0068838247 -0.1326511 0.0044944463 0.04158953 0.094950296 0.09797975 0.12662075 0.100515075
0.1741826 0.23479883 -0.26074588 0.19687638 -0.15508874 0.2523288 0.1460604 0.04877486
